virtual_weight_page.npy (npy, 266128 bytes, 1 tensors)

array f4 [665, 100]
0	0x3e84d06d	0.25940266
1	0x3d32be6e	0.04363864
2	0x3dba2a40	0.0909009
3	0x3db8f99d	0.09031985
4	0x3e05aebd	0.13054939
5	0xbe3d02a9	-0.18458046
6	0x3e832fcb	0.256224
7	0x3e2f54d3	0.17122202
8	0x3e0751ce	0.132148
9	0xbda76c53	-0.08174958
10	0x3dfeaeba	0.1243567
11	0x3eed70a4	0.46375
12	0xbd91fe30	-0.071285605
13	0xbcd26827	-0.02568443
14	0x3e819fed	0.25317326
15	0x3e3821dd	0.17981668
16	0xbe21804a	-0.15771595
17	0x3dbd3837	0.09239238
18	0x3eb3bc1a	0.35104448
19	0x3ecde1de	0.40211385
20	0xbebb56a6	-0.36589545
21	0x3e610817	0.21975742
22	0xbd57277c	-0.05252789
23	0x3e75dd16	0.24010119
24	0xbd1772e3	-0.0369748
25	0xbd3ab416	-0.0455819
26	0xbe896971	-0.26838258
27	0x3ddd5a35	0.10808221
28	0x3e7a3a38	0.24436271
29	0xbc84dec0	-0.016219497
30	0xbdc1731c	-0.094457835
31	0xbcf1b99b	-0.029507449
32	0x3d6c967a	0.057760693
33	0x3e1ecb82	0.1550732
34	0xbe00357d	-0.12520404
35	0x3e81ce0e	0.2535252
36	0x3d272cc0	0.04081416
37	0x3e25004b	0.16113393
38	0x3e4da748	0.20083344
39	0x3dc64f3c	0.096830815
40	0xbcb0d7cb	-0.021587273
41	0x3f074609	0.5284124
42	0x3f1a8277	0.60355324
43	0xbcc30c7e	-0.023809668
44	0xbee7bc1a	-0.45260698
45	0x3dfc911d	0.12332366
46	0xbdcf169a	-0.10111733
47	0x3e111324	0.14167458
48	0xbd5e2919	-0.054238413
49	0x3daae44e	0.08344327
50	0xbe55bea3	-0.20873503
51	0x3e03d712	0.12875012
52	0x3e20cd6e	0.15703365
53	0x3ea11acf	0.31465766
54	0xbdfdb28c	-0.12387571
55	0xbeac205d	-0.3361844
56	0x3e90d72f	0.28289172
57	0x3d96f461	0.0737083
58	0xbe85124f	-0.2599053
59	0xbd1083d3	-0.035281967
60	0x3ead3329	0.33828095
61	0x3e2802ad	0.1640727
62	0x3e33258c	0.17494792
63	0xbed58282	-0.41701132
64	0x3ed27850	0.41107416
65	0x3e7cda4d	0.2469265
66	0x3eb17ec5	0.3466703
67	0xbe09acb4	-0.13444787
68	0x3e55642f	0.20838998
69	0xbe03abef	-0.12858556
70	0x3e45a6fe	0.19301984
71	0xbea45f43	-0.3210393
72	0xbb974b71	-0.0046171476
73	0xbc4fc11e	-0.01268032
74	0xbddbe815	-0.107376255
75	0xbdf5d749	-0.12003953
76	0xbe0e6b44	-0.13908106
77	0xbd2e94f3	-0.042622518
78	0xbdc038da	-0.093858436
79	0x3c2cc437	0.010544828
80	0x3c975380	0.018472433
81	0x3dc17deb	0.09447845
82	0xbd5915c7	-0.052999284
83	0xbcb84d34	-0.02249775
84	0xbd3dae61	-0.04630888
85	0xbdbcf815	-0.092270054
86	0xbe34fab3	-0.17673759
87	0x3cb298b6	0.021801334
88	0x3d535490	0.051594317
89	0xbd3df89c	-0.04637967
90	0xbd09a231	-0.033601943
91	0x3d9c2bdb	0.07625552
92	0x3c8bf77c	0.017085783
93	0x3d3d3952	0.046197243
94	0x3d33e4d5	0.043919403
95	0x3c6910ec	0.014225226
96	0xbd087140	-0.03331113
97	0x3cc52d69	0.024069505
98	0x3d9afb8a	0.075675085
99	0xbd44424b	-0.047914784
100	0xbc93a403	-0.018022543
101	0xbdf80d12	-0.12111868
102	0xbe4b857f	-0.19875143
103	0xbbb6d0c0	-0.005579084
104	0x3cf4933d	0.029855365
105	0xbd5a9d7d	-0.05337285
106	0xbd935ef4	-0.07195845
107	0x3dbf6734	0.09345856
108	0x3d64b6b1	0.05583829
109	0x3d65468e	0.05597549
110	0x3d4ec92e	0.05048483
111	0xbcf9be94	-0.030486383
112	0xbda2a9e1	-0.07942558
113	0xbd33cc1d	-0.04389583
114	0x3e336a53	0.17521028
115	0xbcde1efb	-0.027114382
116	0xbd693e8c	-0.056944415
117	0xbd5e94cd	-0.054341126
118	0xbd1963aa	-0.037448563
119	0x3cc63fc7	0.024200333
120	0x3d317aa2	0.043329842
121	0xbd62a058	-0.055328697
122	0xbdad1e7c	-0.0845308
123	0x3d11f505	0.03563406
124	0xbda87d7a	-0.08227058
125	0x3d6359db	0.055505615
126	0x3dba7494	0.09104267
127	0xbdec7a19	-0.11546726
128	0xbd526727	-0.051367905
129	0xbd706fb7	-0.05870029
130	0xbcd52632	-0.02601919
131	0x3e00cd91	0.12578417
132	0x3cf813e4	0.030282922
133	0x3ca579f5	0.020199755
134	0xbd23a3eb	-0.039951246
135	0x3ccdeb2c	0.025136553
136	0x3e16c298	0.14722669
137	0xbd953417	-0.07285326
138	0x3d9ad122	0.0755942
139	0x3d98f1b6	0.07467978
140	0x3ddc9761	0.10771061
141	0x3dc860bc	0.097840756
142	0x3d229ace	0.039698415
143	0xbccfc08c	-0.025360368
144	0x3d96fced	0.073724605
145	0x3e5c07e8	0.21487391
146	0xbe5196d4	-0.20467693
147	0xbd7f6e7c	-0.062361225
148	0xbe390298	-0.18067396
149	0x3b7fbd8f	0.0039022898
150	0x3d2e843d	0.04260658
151	0x3db01f5b	0.085997306
152	0x3d5f2101	0.054474834
153	0x3bf26610	0.0073974207
154	0xbd6832ba	-0.056689
155	0xbd71a87e	-0.058998577
156	0x3dac5f39	0.084166
157	0x3d1854d6	0.03719028
158	0x3d3b3844	0.045707956
159	0x3c58bad7	0.01322814
160	0xbb93a79e	-0.0045060655
161	0x3d56bdcf	0.05242711
162	0xbce049a6	-0.027378868
163	0xbbbb4add	-0.0057157115
164	0xbd9d847a	-0.076912835
165	0xbddc0b04	-0.107442886
166	0xbd8e8e86	-0.06960778
167	0x3d6bba40	0.05755067
168	0x3db51fb7	0.0884394
169	0xbd888daf	-0.06667649
170	0xbd60d8ff	-0.054894444
171	0x3de29040	0.1106267
172	0x3df09add	0.11748288
173	0x3d3df971	0.046380464
174	0xbb2137e7	-0.002459997
175	0x3ba8b706	0.005148771
176	0xbbe8621f	-0.007091775
177	0x3d1f426f	0.038881715
178	0xbe22ac1d	-0.15885969
179	0xbb5268ed	-0.0032105998
180	0xbaa1dff4	-0.0012350068
181	0xbd6a7623	-0.05724157
182	0xbe868851	-0.26275876
183	0xbc3dc23b	-0.011581953
184	0x3d274d3c	0.04084514
185	0xbcbf5f9f	-0.023361025
186	0xbd023adf	-0.031794425
187	0x3d95f003	0.07321169
188	0xbd34ec50	-0.044170678
189	0x3dfb02c5	0.122563876
190	0x3da0d00c	0.07852182
191	0xbb67d087	-0.0035372095
192	0xbe44e94c	-0.1922962
193	0xbc85b040	-0.016319394
194	0xbd9da078	-0.076966226
195	0x3e969c73	0.29416236
196	0x3d1e748d	0.03868537
197	0xbe676946	-0.22598752
198	0x3e7c93c4	0.24665743
199	0xbde7a9f3	-0.11311712
200	0xbdc7df0e	-0.09759341
201	0xbdff9997	-0.12480467
202	0xbd9666f1	-0.07343853
203	0xbe4da0a5	-0.20080812
204	0xbc2bf79f	-0.010496049
205	0xbd00837a	-0.031375386
206	0xbe48d10f	-0.19611
207	0xbe9a51d6	-0.3014056
208	0xbdb800d5	-0.08984534
209	0x3d9cfacc	0.07665023
210	0xbc65e562	-0.01403174
211	0xba06e4e4	-0.00051458017
212	0x3d4f675d	0.050635684
213	0x3cb582b3	0.022157049
214	0xbda392be	-0.07986973
215	0x3d59a321	0.053134087
216	0x3d91eb3c	0.071249455
217	0xbd748b20	-0.059702992
218	0x3d99dff8	0.07513422
219	0xbc3c6b89	-0.011500248
220	0x3da26bcf	0.07930719
221	0x3d946ae3	0.072469495
222	0x3ddad386	0.10684876
223	0x3adf560c	0.0017039194
224	0xbdb93bef	-0.090446346
225	0x38ba13a0	8.8728266e-05
226	0xbcc6e7dd	-0.024280483
227	0x3c9b08ef	0.018925158
228	0x3d5678cf	0.052361306
229	0x3d5b2e54	0.05351098
230	0xbe10d3b7	-0.14143263
231	0x3a82ab65	0.0009969292
232	0x3ddc5eaa	0.10760243
233	0xbb20a509	-0.002451243
234	0x3d31dd3b	0.043423872
235	0x3cb900dc	0.022583418
236	0x3d8f1a38	0.06987423
237	0x3d927a51	0.07152236
238	0xbc675e17	-0.014121554
239	0x3be175ce	0.0068804985
240	0xbdc1826c	-0.09448704
241	0xbe0ce108	-0.13757718
242	0x3c7bf41c	0.015378024
243	0x3e0281a5	0.12744768
244	0x3d331bac	0.04372756
245	0x3d65a6b3	0.05606718
246	0xbda80750	-0.0820452
247	0xbd5a6c5a	-0.05332599
248	0x3db09ce6	0.08623676
249	0x3c6bc3de	0.01438996
250	0x3b8ac77f	0.0042352076
251	0xbbad3f56	-0.0052870912
252	0x3db19296	0.08670537
253	0x3da85725	0.082197465
254	0xba9ff61c	-0.0012204084
255	0xbcb15659	-0.02164762
