virtual_weight_page.npy (npy, 266128 bytes, 1 tensors)

array f4 [665, 100]
0.2282734 0.038242236 0.04112464 0.025734825 0.044645865 -0.27468744 0.14805451 0.073072806
0.038341377 -0.06400932 0.17764169 0.3017845 -0.10163474 -0.20948096 0.17832312 0.090034515
0.00047425955 0.0035870257 0.24917403 0.28230172 -0.20685403 0.14745659 -0.13648197 0.22502282
-0.089626156 0.036559187 -0.2115984 0.08168653 0.32292584 -0.14379941 -0.09232067 -0.024131136
-0.03157424 0.11610973 -0.1048015 0.19768679 -0.04420677 0.20081528 0.25112456 0.1734267
-0.092217244 0.47352684 0.43406332 -0.12922485 -0.42001525 0.14763013 -0.09748982 0.15355408
0.021855196 0.025802828 -0.28002495 0.14252238 0.12633331 0.30370256 -0.18518317 -0.39436296
0.15057659 -0.0093360795 -0.3453418 -0.04126019 0.29818773 0.23025581 0.14388062 -0.4060265
0.30248094 0.1845154 0.24658088 -0.08979396 0.25787854 -0.24692948 0.19073959 -0.327819
-0.0003676114 0.009703309 -0.117348455 -0.18589061 -0.20481293 -0.15722233 -0.26024023 -0.018397301
0.007445434 0.08250911 -0.17327498 0.13783085 -0.047326874 -0.09904605 -0.18643737 -0.030371912
0.1541529 0.018115023 0.042793624 0.12739293 0.07715343 0.030773768 0.035491135 0.06462842
-0.0071724304 0.010021217 0.07237085 -0.09918582 0.07488798 -0.116171315 -0.27861392 -0.025632733
-0.014030774 -0.06456016 -0.12763686 0.116285674 0.1564327 0.055794485 0.04610911 -0.00065379264
-0.2873215 -0.16300273 0.21447855 -0.060603663 0.0007357033 0.04986744 0.050865185 0.16114275
0.05192636 -0.10352162 -0.03206668 -0.052528374 -0.13335705 -0.004214323 0.1040878 -0.07410313
-0.08818643 -0.117057145 -0.12803747 0.114658035 0.077542305 0.1455164 -0.092608824 0.05707841
0.08477264 -0.01480257 0.047926065 0.17813446 0.101470955 0.15226422 0.04268207 -0.009392522
-0.020957487 0.32713622 -0.2894191 -0.10999926 -0.28397623 -0.002722463 0.12948973 -0.029099897
-0.027118262 0.018151125 0.023252415 -0.019866733 0.022925112 -0.04313867 0.11515578 -0.13320473
0.093511626 0.037579894 -0.063694134 0.045098983 -0.055208284 -0.081023335 -0.0549057 -0.06549139
-0.05878048 -0.055750556 0.058533303 0.08365601 0.17008461 0.06570428 -0.012181866 -0.05661658
-0.031290665 0.044321645 -0.25387996 0.15210907 0.11532439 0.03947372 -0.39950457 0.0792125
0.05892849 -0.13522537 -0.061234985 0.22189155 -0.117998414 0.15538153 0.21186656 -0.038068593
-0.07832576 -0.018889327 -0.16855384 0.32194403 0.104030594 -0.24651514 0.18898249 -0.16328914
-0.2922056 -0.120448984 -0.008785979 -0.115762636 0.20116931 -0.17125231 -0.22033189 -0.34441102
-0.18858273 0.096831605 0.05560042 0.0972749 0.14256075 0.031081218 -0.040261634 0.14295681
0.0012378504 -0.08389362 0.10550552 -0.10206615 0.06986753 0.12816119 0.0934609 0.07772795
-0.11818437 0.0029710296 -0.02309515 0.04195936 0.17494082 0.07098729 -0.213535 0.060754023
0.09715036 -0.061769355 0.039705724 -0.04503785 0.12952873 0.108891666 -0.005185108 0.026955813
-0.23904854 -0.20807104 -0.054891523 0.12781443 -0.013199728 0.060265362 -0.078661 -0.07579139
0.06566348 0.07258011 0.016315741 0.11562613 0.13070485 0.09127206 -0.01104771 -0.09241512
00000000: 81c0 693e e4a3 1c3d 4f72 283d d7d1 d23c
00000010: 95de 363d d5a3 8cbe 9a9b 173e 32a7 953d
00000020: d90b 1d3d 5217 83bd b4e7 353e 7f83 9a3e
00000030: e025 d0bd 2d82 56be 569a 363e 0464 b83d
00000040: 0aa6 f839 4e14 6b3b 7a27 7f3e da89 903e
00000050: 8bd1 53be dcfe 163e eec1 0bbe 626c 663e
00000060: eb8d b7bd 16bf 153d 40ad 58be 444b a73d
00000070: 8956 a53e 2740 13be 9f12 bdbd a9ae c5bc
00000080: fe53 01bd f0ca ed3d 2ba2 d6bd 686e 4a3e
00000090: 2812 35bd 85a2 4d3e 6693 803e c596 313e
000000a0: 65dc bcbd 1c72 f23e 8c3d de3e 8553 04be
000000b0: 3d0c d7be 5a2c 173e bea8 c7bd 483d 1d3e
000000c0: ab09 b33c 7460 d33c 6e5f 8fbe 63f1 113e
000000d0: 855d 013e e77e 9b3e a8a0 3dbe f1e9 c9be
000000e0: c030 1a3e 5bf6 18bc a4d0 b0be 7200 29bd
000000f0: 10ac 983e 2ec8 6b3e 7155 133e b5e2 cfbe
00000100: c8de 9a3e 9bf1 3c3e b37f 7c3e e5e5 b7bd
00000110: a808 843e 15db 7cbe 3d51 433e e4d7 a7be
00000120: f8bb c0b9 a1fa 1e3c 6354 f0bd 1c5a 3ebe
00000130: 7bba 51be e4fe 20be 353e 85be f0b5 96bc
00000140: d4f8 f33b 89fa a83d ff6e 31be 8823 0d3e
00000150: d3d9 41bd a8d8 cabd 70e9 3ebe 84ce f8bc
00000160: 42da 1d3e f565 943c 5e48 2f3d 4b73 023e
00000170: 9e02 9e3d 4519 fc3c 275f 113d e85b 843d
00000180: b506 ebbb 0830 243c 2b37 943d ef21 cbbd
00000190: df5e 993d 3aeb edbd 7ca6 8ebe bdfb d1bc
000001a0: 55e1 65bc 1e38 84bd 3db3 02be 2f27 ee3d
000001b0: e52f 203e c288 643d e8dc 3c3d 4863 2bba
000001c0: ce1b 93be 30ea 26be 44a0 5b3e 8c3b 78bd
000001d0: 36dc 403a cd41 4c3d 0358 503d 9b02 253e
000001e0: bcb0 543d 2503 d4bd 5a58 03bd fe27 57bd
000001f0: c08e 08be 4e18 8abb fc2b d53d 62c3 97bd
00000200: 169b b4bd a8bb efbd 411c 03be d5d1 ea3d
00000210: 80ce 9e3d 4002 153e b2a9 bdbd 0dcb 693d
00000220: 479d ad3d 7b86 72bc 1f4e 443d e168 363e
00000230: 01d0 cf3d 27eb 1b3e 65d3 2e3d 18e3 19bc
00000240: 09af abbc 667e a73e be2e 94be 4b47 e1bd
00000250: 5565 91be 5a6b 32bb f598 043e e862 eebc
00000260: 1e27 debc abb1 943c d97b be3c 8fbf a2bc
00000270: 72cd bb3c 2db2 30bd cbd6 eb3d d266 08be
00000280: 0683 bf3d 60ed 193d 1272 82bd b6b9 383d
00000290: 1522 62bd 90ef a5bd cde4 60bd 5a20 86bd
000002a0: cdc3 70bd b25a 64bd 9ec0 6f3d d853 ab3d
000002b0: a92a 2e3e f78f 863d 7396 47bc c9e6 67bd
000002c0: a42a 00bd 9d8a 353d 8efc 81be 7bc2 1b3e
000002d0: 322f ec3d 32af 213d dd8b ccbe 2a3a a23d
000002e0: 005f 713d 8578 0abe 89d1 7abd 8a37 633e
000002f0: 27a9 f1bd 561c 1f3e 8cf3 583e d0ed 1bbd
00000300: 4269 a0bd cabd 9abc 6199 2cbe d9d5 a43e
00000310: fe0d d53d 776e 7cbe a084 413e 4535 27be
00000320: f99b 95be f5ad f6bd 11f3 0fbc f614 edbd
00000330: 54ff 4d3e c45c 2fbe af9e 61be a456 b0be
00000340: d51b 41be a64f c63d 44bd 633d 1038 c73d
00000350: 72fb 113e 0a9e fe3c 62e9 24bd 4563 123e
00000360: 5e3f a23a 6bd0 abbd 4713 d83d 0f08 d1bd
00000370: b516 8f3d b03c 033e 6e68 bf3d d52f 9f3d
00000380: a60a f2bd 9bb5 423b 0a32 bdbc 94dd 2b3d
00000390: b023 333e c961 913d eba8 5abe 36d9 783d
000003a0: c5f6 c63d dd01 7dbd 78a2 223d 9c79 38bd
000003b0: 2ea3 043e 9802 df3d d7e7 a9bb 70d2 dc3c
000003c0: 24c9 74be 9310 55be efd5 60bd c9e1 023e
000003d0: ac43 58bc d0d8 763d 0519 a1bd 8438 9bbd
000003e0: 937a 863d e1a4 943d 97a8 853c 64cd ec3d
000003f0: 7ed7 053e d9ec ba3d 7401 35bc 2344 bdbd
