weight_page.npy (npy, 266128 bytes, 1 tensors)

array f4 [665, 100]
00000000: d7c0 3d3e 1615 7d3e 7c1c 95be 0de8 953d
00000010: 369f 053e a9ea 67be c20a 0ebd b9f1 5c3d
00000020: ebf5 973d 9b92 cabd d037 78bd b178 cebc
00000030: b3b0 bcbd 2802 0a3e f7c7 913e 50ff 46bd
00000040: 13dd c73d e98e 2b3e 6cf3 f2bc e1bd ad3e
00000050: d759 61bc 1460 21bf 87b6 26bd 9b05 493d
00000060: d71c 88bd 676c 39be 7cba 343d 9bd7 f5bd
00000070: b091 4c3e 3f05 fbbc c6b5 d3bd 41d6 86bd
00000080: 7dc4 86bd b08a 72bc 3c20 4c3b 024e 013f
00000090: d142 d9bd 8c57 3cbe b284 2f3d 07ff 7c3e
000000a0: 7da7 6e3d e36a 14be 2443 6abe 0a92 9fbd
000000b0: 06fd de3d 74c8 59be 9c64 973e c8b0 d83e
000000c0: 89c4 a13c bf14 bd3b bbba dabd 8343 b93d
000000d0: 32fc c9bd bc66 a43d 0bae b8bd 9d89 e2bd
000000e0: d34e cfbd 032a 7bbd 4253 a3bc 6653 06bc
000000f0: e6a8 803d 2233 c73d 8fa2 09bc c0a0 593e
00000100: 67e5 893d 36df 6fbd a97f e53c aca7 c23b
00000110: f668 8ebe 3aa1 01bf 3632 333e 5462 423d
00000120: fa98 8fbe 01ff 18be 8518 763e 5394 a13d
00000130: a086 02bd cea7 ee3d 805b d1be b6f1 873d
00000140: 8835 113d 71ed 803d adbb 05bd dcff 19be
00000150: 4d55 acbd b28b 5bbd fc0a a93e 3767 b53c
00000160: 1919 5fbe 1161 abbc df8f 8fbd f348 2b3e
00000170: 7511 98bd dc64 29be 0792 2f3e 459a b53d
00000180: bf3b 57bd e483 79be b9bb 913a 3534 c6bc
00000190: 8b28 21be ede7 b53d d5bb 3b3e 97a5 b23c
000001a0: a9a8 b5bd baf1 623d 1497 e5bd 8932 b73b
000001b0: 553e ebbd fd08 53bd c8af 85bd d824 9ebe
000001c0: fe22 4e3e 87b7 383e c91a f53a 04c8 d83d
000001d0: b7c2 2c3e 8b76 2dbe 8b72 04be 7c1d fe3d
000001e0: f85d 353d 230c f13d 075d 53bd 1596 7d3d
000001f0: c940 183e 3a43 87bd bb61 403e e44c 513e
00000200: 567c dd3d cd70 263c f7d6 143e 5a73 d1bd
00000210: c0f7 48be 1c9a b23d 21db a9bc 4f15 19be
00000220: 5599 92be 42b6 a43d bd5d 2fbd f158 15be
00000230: 11e6 4c3e 1132 023d 3c31 62bd 0eff c23d
00000240: 0a89 6f3d 218a 0abe 402d 4e3e 2904 64bd
00000250: c273 a63d f624 533d 5f74 8abc c885 833e
00000260: a927 fc3d 89ca 983e 09c3 9abd 8b08 69be
00000270: d6fc e43d 9957 a73d 0e24 303e 4cba 0fbe
00000280: f3d9 fdbd 28f6 e3bd ea87 76bd 9533 4abd
00000290: b8cd f93d 8c1a e5bd 35a6 893c 144f b9bd
000002a0: ff9d 173e 1199 80bd 5403 26be 38ca a43e
000002b0: 9a9d 043e 097e b03c 5cab 913d fbdf 9e3d
000002c0: 69a9 5fbe 5089 0e3e e86d a5bd 2e36 e93c
000002d0: 9725 41be c635 573d 2a82 dbbd ed20 0bbd
000002e0: c3b7 13bd efb2 c6be b950 5cbe 8534 65be
000002f0: 7ec4 bb3d e7f6 9e3d d861 9c3e 2773 053d
00000300: c6fb 983c 2d70 ec3d df48 03bf 3178 193e
00000310: 442f 2c3d 7c46 46bd 0a96 b83c 2311 fb3d
00000320: c8e0 fabe bc8b 41be bfe8 843d c001 01bd
00000330: 323a b4bd ae1c 10be 918f 82be fc9f 20bf
00000340: 9388 173e 0bd0 b4bd 6aa0 f1be 1815 7c3d
00000350: 19d2 7d3d b7e1 a43c f794 e33d 0059 40be
00000360: f9b1 16bf 44de f1be 4c57 febe f519 273c
00000370: a528 c5bd a77a 0c3c 9fe7 05be 9dca 3dbf
00000380: ef61 5abe ba24 4bbd 215b 9abe d1dc 8cbe
00000390: 451e cabe 8906 97be 0ae2 87be 3f1b 9abe
000003a0: a15b aabe 984e 1fbe a677 3dbe b82e 6bbd
000003b0: b317 1d3d b6d9 f9bc ff57 96be a713 b7be
000003c0: 94d6 25bf f667 eabd e748 8dbe a42b 0fbe
000003d0: ee1a e0bd 081b 0ebf 7722 3dbe 22a8 2ebd
000003e0: 4e2d 32be 5517 c9be 8d7a 623e 0195 3ebe
000003f0: 3555 79be 7597 e6bd b682 8ebe fdab 65be
0.18530594 0.24715075 -0.29123294 0.07319651 0.13049015 -0.2264811 -0.03467823 0.053941462
0.07419952 -0.09891244 -0.060600102 -0.025204035 -0.0921339 0.13477385 0.28472874 -0.04858333
0.097589634 0.16753735 -0.029657088 0.3393393 -0.01375433 -0.6303723 -0.040701415 0.04907761
-0.06646126 -0.18107758 0.044123158 -0.12004014 0.1997745 -0.03064215 -0.10337405 -0.065838344
-0.06580446 -0.0148035735 0.0031147143 0.50509655 -0.10608447 -0.18392771 0.042851157 0.2470666
0.058265198 -0.14493899 -0.22877175 -0.077915266 0.10888104 -0.21267873 0.29568946 0.42322373
0.019747036 0.0057702954 -0.10680147 0.0904608 -0.098625556 0.080274075 -0.09017571 -0.11061404
-0.101224564 -0.061319362 -0.019937161 -0.008198595 0.06282215 0.0972655 -0.008400573 0.21252728
0.06733208 -0.05856248 0.028014975 0.005940398 -0.27814454 -0.5063664 0.17499623 0.047457054
-0.280464 -0.14941026 0.24032791 0.07889619 -0.03186667 0.116531 -0.4089012 0.066378996
0.035451442 0.06295288 -0.032649685 -0.15039009 -0.08414707 -0.05360002 0.33016193 0.022143943
-0.21786918 -0.020920308 -0.07009863 0.16727047 -0.07425205 -0.16542381 0.17145549 0.08867315
-0.052547213 -0.24366719 0.0011118568 -0.024194816 -0.15738122 0.08882127 0.18333371 0.021807475
-0.0887006 0.05540631 -0.112104565 0.005590741 -0.11486498 -0.051522244 -0.06527668 -0.30887485
0.20130536 0.1803876 0.0018699999 0.10585025 0.16871153 -0.16939752 -0.1293432 0.124079674
0.04427907 0.11769893 -0.05160239 0.061910708 0.14868464 -0.06604619 0.18787281 0.20439488
0.10814731 0.01015873 0.14535128 -0.1022708 -0.19625759 0.087208 -0.020734372 -0.14949535
-0.28632608 0.080425754 -0.042814005 -0.1458471 0.20009638 0.03178603 -0.055222735 0.09521304
0.0584803 -0.13529254 0.20134449 -0.05566803 0.08127548 0.05154892 -0.016901193 0.25688004
0.12312252 0.29842022 -0.07556731 -0.22757165 0.11181037 0.08171005 0.17201254 -0.1403591
-0.12395086 -0.11130935 -0.06018821 -0.0493656 0.12197441 -0.11186704 0.016802887 -0.09048286
0.14806364 -0.06279195 -0.16212207 0.3218553 0.12950745 0.021544473 0.07112762 0.07757565
-0.21841969 0.13919568 -0.080776036 0.028468218 -0.18861996 0.052541517 -0.10718186 -0.033966947
-0.03606392 -0.3880839 -0.21515168 -0.22383316 0.09168337 0.07761937 0.305434 0.03258052
0.018674742 0.11544833 -0.5128307 0.14987256 0.042037264 -0.048407063 0.022532482 0.12259128
-0.4899962 -0.1890096 0.06489705 -0.03149581 -0.088001624 -0.1407344 -0.25500157 -0.62744117
0.14798193 -0.088287435 -0.471927 0.061543554 0.061967943 0.02012716 0.11112397 -0.18783951
-0.58865315 -0.47239888 -0.49675977 0.01019906 -0.09626893 0.0085741645 -0.13076638 -0.7413729
-0.21326421 -0.049595572 -0.3014765 -0.2751222 -0.3947622 -0.29497173 -0.26539642 -0.30098912
-0.33273032 -0.15557325 -0.18502674 -0.0574176 0.03835268 -0.03049932 -0.2936401 -0.3575718
-0.64780545 -0.1144561 -0.27594683 -0.13981491 -0.109426364 -0.55509996 -0.18470179 -0.042640813
-0.17400095 -0.39275613 0.22117062 -0.18611528 -0.2434891 -0.11259357 -0.278341 -0.2242889
